…
onvolutions, which process volumetric data in three dimensions, capturing spatial hierarchies and context within the entire volume.
It is widely used for 3D segmentation tasks in medical imaging, such as tumor segmentation, organ delineation, and brain lesion detection, due to its abilityto handle the complexity and depth of 3D images.

                ## PARAMETERS OF UNet3D
----------------------------------------------------------------
        Layer (type)               Output Shape         Param #
================================================================
            Conv3d-1       [-1, 64, 50, 50, 50]           6,976
       BatchNorm3d-2       [-1, 64, 50, 50, 50]             128
              ReLU-3       [-1, 64, 50, 50, 50]               0
            Conv3d-4       [-1, 64, 50, 50, 50]         110,656
       BatchNorm3d-5       [-1, 64, 50, 50, 50]             128
              ReLU-6       [-1, 64, 50, 50, 50]               0
        DoubleConv-7       [-1, 64, 50, 50, 50]               0
         MaxPool3d-8       [-1, 64, 25, 25, 25]               0
            Conv3d-9      [-1, 128, 25, 25, 25]         221,312
      BatchNorm3d-10      [-1, 128, 25, 25, 25]             256
             ReLU-11      [-1, 128, 25, 25, 25]               0
           Conv3d-12      [-1, 128, 25, 25, 25]         442,496
      BatchNorm3d-13      [-1, 128, 25, 25, 25]             256
             ReLU-14      [-1, 128, 25, 25, 25]               0
       DoubleConv-15      [-1, 128, 25, 25, 25]               0
             Down-16      [-1, 128, 25, 25, 25]               0
        Dropout3d-17      [-1, 128, 25, 25, 25]               0
        MaxPool3d-18      [-1, 128, 12, 12, 12]               0
           Conv3d-19      [-1, 256, 12, 12, 12]         884,992
      BatchNorm3d-20      [-1, 256, 12, 12, 12]             512
             ReLU-21      [-1, 256, 12, 12, 12]               0
           Conv3d-22      [-1, 256, 12, 12, 12]       1,769,728
      BatchNorm3d-23      [-1, 256, 12, 12, 12]             512
             ReLU-24      [-1, 256, 12, 12, 12]               0
       DoubleConv-25      [-1, 256, 12, 12, 12]               0
             Down-26      [-1, 256, 12, 12, 12]               0
        MaxPool3d-27         [-1, 256, 6, 6, 6]               0
           Conv3d-28         [-1, 512, 6, 6, 6]       3,539,456
      BatchNorm3d-29         [-1, 512, 6, 6, 6]           1,024
             ReLU-30         [-1, 512, 6, 6, 6]               0
           Conv3d-31         [-1, 512, 6, 6, 6]       7,078,400
      BatchNorm3d-32         [-1, 512, 6, 6, 6]           1,024
             ReLU-33         [-1, 512, 6, 6, 6]               0
       DoubleConv-34         [-1, 512, 6, 6, 6]               0
             Down-35         [-1, 512, 6, 6, 6]               0
        Dropout3d-36         [-1, 512, 6, 6, 6]               0
        MaxPool3d-37         [-1, 512, 3, 3, 3]               0
           Conv3d-38        [-1, 1024, 3, 3, 3]      14,156,800
      BatchNorm3d-39        [-1, 1024, 3, 3, 3]           2,048
             ReLU-40        [-1, 1024, 3, 3, 3]               0
           Conv3d-41        [-1, 1024, 3, 3, 3]      28,312,576
      BatchNorm3d-42        [-1, 1024, 3, 3, 3]           2,048
             ReLU-43        [-1, 1024, 3, 3, 3]               0
       DoubleConv-44        [-1, 1024, 3, 3, 3]               0
             Down-45        [-1, 1024, 3, 3, 3]               0
  ConvTranspose3d-46         [-1, 512, 6, 6, 6]       4,194,816
           Conv3d-47         [-1, 512, 6, 6, 6]      14,156,288
      BatchNorm3d-48         [-1, 512, 6, 6, 6]           1,024
             ReLU-49         [-1, 512, 6, 6, 6]               0
           Conv3d-50         [-1, 512, 6, 6, 6]       7,078,400
      BatchNorm3d-51         [-1, 512, 6, 6, 6]           1,024
             ReLU-52         [-1, 512, 6, 6, 6]               0
       DoubleConv-53         [-1, 512, 6, 6, 6]               0
               Up-54         [-1, 512, 6, 6, 6]               0
        Dropout3d-55         [-1, 512, 6, 6, 6]               0
  ConvTranspose3d-56      [-1, 256, 12, 12, 12]       1,048,832
           Conv3d-57      [-1, 256, 12, 12, 12]       3,539,200
      BatchNorm3d-58      [-1, 256, 12, 12, 12]             512
             ReLU-59      [-1, 256, 12, 12, 12]               0
           Conv3d-60      [-1, 256, 12, 12, 12]       1,769,728
      BatchNorm3d-61      [-1, 256, 12, 12, 12]             512
             ReLU-62      [-1, 256, 12, 12, 12]               0
       DoubleConv-63      [-1, 256, 12, 12, 12]               0
               Up-64      [-1, 256, 12, 12, 12]               0
  ConvTranspose3d-65      [-1, 128, 24, 24, 24]         262,272
           Conv3d-66      [-1, 128, 25, 25, 25]         884,864
      BatchNorm3d-67      [-1, 128, 25, 25, 25]             256
             ReLU-68      [-1, 128, 25, 25, 25]               0
           Conv3d-69      [-1, 128, 25, 25, 25]         442,496
      BatchNorm3d-70      [-1, 128, 25, 25, 25]             256
             ReLU-71      [-1, 128, 25, 25, 25]               0
       DoubleConv-72      [-1, 128, 25, 25, 25]               0
               Up-73      [-1, 128, 25, 25, 25]               0
        Dropout3d-74      [-1, 128, 25, 25, 25]               0
  ConvTranspose3d-75       [-1, 64, 50, 50, 50]          65,600
           Conv3d-76       [-1, 64, 50, 50, 50]         221,248
      BatchNorm3d-77       [-1, 64, 50, 50, 50]             128
             ReLU-78       [-1, 64, 50, 50, 50]               0
           Conv3d-79       [-1, 64, 50, 50, 50]         110,656
      BatchNorm3d-80       [-1, 64, 50, 50, 50]             128
             ReLU-81       [-1, 64, 50, 50, 50]               0
       DoubleConv-82       [-1, 64, 50, 50, 50]               0
               Up-83       [-1, 64, 50, 50, 50]               0
           Conv3d-84        [-1, 3, 50, 50, 50]             195
              Out-85        [-1, 3, 50, 50, 50]               0
================================================================
Total params: 90,309,763
Trainable params: 90,309,763
Non-trainable params: 0
----------------------------------------------------------------
Input size (MB): 1.91
Forward/backward pass size (MB): 1355.38
Params size (MB): 344.50
Estimated Total Size (MB): 1701.79
----------------------------------------------------------------
add Codeadd Markdown
